generator.pth (torch, 560462 bytes, 13 tensors)

model.0.weight f4 [256, 13]
0	0x3f2ad8ac	0.66736865
1	0x3d8f6fa6	0.07003717
2	0xbd3368ad	-0.043801
3	0xbb079787	-0.0020689683
4	0x3dc01522	0.09379031
5	0x3c1ccfbf	0.009571015
6	0x3e527a47	0.20554458
7	0xbd1f38a0	-0.03887236
8	0xbde4e45b	-0.11176368
9	0x3dcbe2db	0.099553786
10	0x3dacdbfa	0.08440395
11	0x3cbaa402	0.022783283
12	0xbe7716cb	-0.24129789
13	0xbe91fa4f	-0.28511283
14	0xbdaccb85	-0.08437256
15	0x3f55843e	0.8340491
16	0x3bd1146b	0.006380608
17	0x3dfd2a35	0.12361566
18	0xbd28b4f1	-0.041188184
19	0xbce06d44	-0.027395852
20	0xbe033199	-0.12811889
21	0x3dd618eb	0.104539715
22	0x3d9553a3	0.07291343
23	0x3d620e13	0.055189203
24	0xbda75a54	-0.081715256
25	0x3dacb656	0.08433215
26	0x3eb50d00	0.3536148
27	0x3f3c6367	0.73589176
28	0xbea20b77	-0.31649372
29	0xbe2714a7	-0.16316472
30	0x3e309b7a	0.1724681
31	0x3e015146	0.1262866
32	0x3e3e24c3	0.18568711
33	0x3e23bd6a	0.15990224
34	0x3d49566c	0.049154684
35	0xbc80f386	-0.015741121
36	0xbddafe59	-0.10693044
37	0xbd1e1c83	-0.03860141
38	0xbe056b4d	-0.13029213
39	0x3f45eb63	0.77312297
40	0x3cb7f90d	0.022457624
41	0x3ea4e92d	0.3220915
42	0x3d265b54	0.04061444
43	0x3dc6e32e	0.097113
44	0x3db76752	0.08955254
45	0x3e0eb2f9	0.1393546
46	0x3e4628cf	0.19351505
47	0x3c77e5af	0.015130444
48	0x3d5603f2	0.052249856
49	0xbe3193fb	-0.17341606
50	0xbd4ae222	-0.049532063
51	0xbe92bf4c	-0.28661573
52	0x3e7c05f2	0.24611643
53	0xbccf052f	-0.025271026
54	0xbe6ff332	-0.23432615
55	0x3e9563ca	0.29177696
56	0x3d87dbce	0.06633721
57	0xbcb0015a	-0.02148502
58	0x3dcd5718	0.100263774
59	0xbe01b4f0	-0.12666678
60	0x3d893072	0.06698693
61	0x3dbc6d81	0.09200574
62	0x3defa858	0.11702031
63	0x3e2244e7	0.15846597
64	0x3e06da4a	0.13169208
65	0xbf07dc08	-0.53070116
66	0xbd6ac99c	-0.057321176
67	0x3f338d2d	0.7013729
68	0x3c18ea35	0.009333183
69	0xbd1eb6d1	-0.038748566
70	0xbcd6e536	-0.026232343
71	0xbc9093cb	-0.017648598
72	0x3dc8d7a1	0.09806753
73	0xbd383306	-0.044970535
74	0x3d69b593	0.05705793
75	0x3d223363	0.039599787
76	0x3d329a56	0.043604217
77	0xbd811296	-0.06302373
78	0x3ddc0b16	0.10744302
79	0x3f5a3436	0.8523592
80	0xbf01a017	-0.506349
81	0x3b789c38	0.003793491
82	0xbaa028f5	-0.0012219237
83	0x38c15d39	9.220321e-05
84	0xb9ab3408	-0.00032654428
85	0x3ba712bc	0.005098669
86	0xbaffcf68	-0.0019516768
87	0x3ba160bc	0.0049248617
88	0xbb0242a9	-0.0019876158
89	0xbad76c90	-0.0016435552
90	0xbbb62c0c	-0.00555945
91	0x3e918389	0.28420666
92	0x3eede942	0.46467024
93	0x3f6565da	0.8960854
94	0xbcc77b9e	-0.024350937
95	0xbb4ba89d	-0.0031075843
96	0x3d5703e7	0.052493956
97	0xbd7caeb8	-0.061690062
98	0xbd8f266f	-0.069897525
99	0xbc9d13b0	-0.019174427
100	0x3c2ed25a	0.010670269
101	0xbc1a4d20	-0.009417802
102	0x3cdbae3c	0.02681648
103	0x3da2b826	0.0794528
104	0x3f929f75	1.1454912
105	0x3e897e5b	0.26854214
106	0xbe751408	-0.23933423
107	0xbbc47dca	-0.0059964405
108	0x3c9b31a2	0.018944565
109	0x3d2a76da	0.041617252
110	0x3b07ee2b	0.0020741324
111	0xbc6c83c9	-0.014435717
112	0xbca45ce6	-0.020063829
113	0x3cddaebc	0.027060859
114	0xbbaf4a1c	-0.0053494107
115	0x3ce78b3a	0.02826463
116	0xbce0e520	-0.027453005
117	0x3ed89534	0.42301333
118	0x3d98449d	0.07434962
119	0xbf59e7ec	-0.8511951
120	0xbd4c75e6	-0.049917124
121	0x3d066308	0.032809287
122	0xbdc798d0	-0.097459435
123	0xbce9d488	-0.028543726
124	0x3e536158	0.20642602
125	0xbde6e351	-0.11273826
126	0x3dcfcceb	0.10146507
127	0xbe0c69bf	-0.13712214
128	0x3d5df302	0.05418683
129	0xbdc32e5a	-0.09530325
130	0xbe75cbdf	-0.24003552
131	0xbce44d94	-0.027869023
132	0xbd7b78c3	-0.061394464
133	0xbe32ae4d	-0.17449303
134	0x3dbb6db7	0.09151786
135	0x3cecc6b5	0.028903345
136	0xbd9bfc9d	-0.076165415
137	0xbe91892e	-0.28424972
138	0x3de3bd6c	0.11120114
139	0xbdd60d03	-0.104517005
140	0x3c097fec	0.008392315
141	0x3d0f0717	0.03491887
142	0x3e817e07	0.25291464
143	0xbd267684	-0.04064037
144	0x3d03678f	0.032081183
145	0x3ec963ef	0.39334056
146	0x3d4b1299	0.049578283
147	0xbe89ac29	-0.2688916
148	0xbe598ad0	-0.21244359
149	0xbe4fd880	-0.20297432
150	0x3e0b1660	0.13582754
151	0xbe46d91b	-0.19418757
152	0xbe6d8f42	-0.2319918
153	0xbe8e216a	-0.27759868
154	0x3e242fc9	0.16033854
155	0xbdcd211d	-0.100160815
156	0x3e8f3bda	0.2797535
157	0x3d95c88f	0.07313644
158	0x3f24d64d	0.643895
159	0x3b63ce40	0.0034760386
160	0xb913e0c0	-0.00014102738
161	0xbafc6f71	-0.0019259286
162	0xba808df3	-0.0009807929
163	0x3b10843a	0.002205147
164	0xbb2da7e9	-0.0026497787
165	0xbaafbeba	-0.0013408281
166	0x3a2c5239	0.00065735314
167	0x3adb8606	0.0016748316
168	0xba9ccd1c	-0.0011962983
169	0xbe8bf00f	-0.27331588
170	0xbf2a49c1	-0.6651879
171	0x3e779d62	0.2418113
172	0x3e2b74d6	0.16743788
173	0xbdbb2391	-0.09137643
174	0xbd118f2d	-0.035536934
175	0x3d7623b1	0.06009263
176	0x3e90a0c8	0.28247666
177	0xbdd631e3	-0.10458734
178	0x3d9fc9b6	0.07802145
179	0xbc8dbc94	-0.017301835
180	0xbcec0c7b	-0.028814545
181	0xbe7d0293	-0.24708013
182	0x3dbf35c3	0.09336426
183	0x3f5946e2	0.84873784
184	0x3d8945b5	0.06702749
185	0x3c8edbff	0.017438887
186	0xbd26aac7	-0.04069021
187	0x3c0cc866	0.008592701
188	0x3d82eea5	0.06393174
189	0x3d5bf77a	0.05370281
190	0x3b565144	0.0032702247
191	0x3d904432	0.07044257
192	0x3c565743	0.013082328
193	0xbaf8f4e5	-0.0018993883
194	0xbddcd1f6	-0.10782234
195	0xbefb30db	-0.4906071
196	0xbe023ea1	-0.12719204
197	0x3e9789df	0.29597375
198	0x3dba659b	0.09101411
199	0xbe02f801	-0.12789918
200	0x3cdf9839	0.027294265
201	0x3e491212	0.196358
202	0x3e11c226	0.14234218
203	0xbded885f	-0.11598276
204	0x3e00bbdf	0.12571667
205	0x3d8ef406	0.069801375
206	0xbdb13693	-0.08652987
207	0xbda5c31e	-0.08093856
208	0x3f376682	0.7164079
209	0x3e895509	0.2682269
210	0xbe979c2d	-0.2961134
211	0x3e279fbf	0.16369532
212	0x3e084891	0.13308932
213	0x3dadf791	0.08494485
214	0xbe098284	-0.13428694
215	0x3dad77ba	0.08470102
216	0xbd80b848	-0.06285149
217	0x3d4de4fb	0.0502672
218	0x3c7247cf	0.014787628
219	0xbe0fab48	-0.14030182
220	0x3d99685a	0.074906066
221	0xbf052fd8	-0.5202613
222	0xbf309363	-0.68974894
223	0xbda9dad2	-0.0829369
224	0xbb4aa743	-0.003092245
225	0x3b787e5d	0.0037917115
226	0x3b181e00	0.002321124
227	0xbb0e6f29	-0.0021733737
228	0xbb1b105b	-0.0023660872
229	0x3b4e1578	0.0031445902
230	0xbb6fc91c	-0.0036588376
231	0x3b4c6a20	0.0031191185
232	0x3a935ccb	0.0011242864
233	0x3b6096d9	0.00342696
234	0x3f54724e	0.82986915
235	0xbefaad03	-0.48960122
236	0x3eeccfee	0.46252388
237	0xbbaf8c5d	-0.005357309
238	0x3cb5c03d	0.022186393
239	0x3cb1429e	0.02163821
240	0xbbf87fba	-0.0075835856
241	0xbce697df	-0.02814859
242	0x3ccc5939	0.024944888
243	0xbc5c0a34	-0.013430167
244	0x3ab2360f	0.0013596433
245	0xbc6d5de2	-0.014487715
246	0x3cf2e00a	0.029647846
247	0x3de692e2	0.112584844
248	0xbe14d925	-0.14535959
249	0xbe981fc6	-0.2971174
250	0xbd2981d2	-0.041383572
251	0xbdaece30	-0.08535421
252	0x3e1ecad9	0.15507068
253	0xbe563ab4	-0.20920831
254	0xbcbc1f4e	-0.022964146
255	0xbe4d1c32	-0.20030287

model.0.bias f4 [256]
0	0xbd9aa07e	-0.07550143
1	0x3eb4bb0e	0.3529896
2	0x3e3aa044	0.18225199
3	0x3d0a75dc	0.033803806
4	0x3e2ab39b	0.16670077
5	0x3e6b4b70	0.22977996
6	0xbe3eaf90	-0.1862166
7	0x3c938359	0.018006967
8	0x3d2cdb69	0.042201433
9	0x3e6704fb	0.22560494
10	0xbeec5ed8	-0.4616611
11	0x3ea356d0	0.3190217
12	0xbecf3077	-0.40466663
13	0x3d79cbf4	0.06098552
14	0xbecb0398	-0.3965118
15	0x3ea347a5	0.31890598
16	0x3c7d3302	0.015454056
17	0x3e7f5745	0.24935634
18	0xbea8b6eb	-0.32952055
19	0x3e69dbf4	0.22837812
20	0x3e114744	0.14187342
21	0x3e777301	0.24164964
22	0x3dab9bb6	0.08379309
23	0xbd68032c	-0.05664365
24	0xbd9695c2	-0.07352783
25	0x3deb92ac	0.11502585
26	0x3cf56ea0	0.029959977
27	0xbe002b0b	-0.1251642
28	0x3ea2f7d2	0.31829697
29	0xbc9766fd	-0.018481726
30	0x3b1dd0b8	0.0024080705
31	0xbe2f7757	-0.17135368
32	0xbd46d17a	-0.048539616
33	0xbe418289	-0.18897451
34	0x3e37096e	0.17874691
35	0xbe59530b	-0.21223085
36	0x3e40b31f	0.1881833
37	0x3d6b0963	0.057382
38	0xbe8e32d2	-0.27773148
39	0xbed8cbaf	-0.42342898
40	0x3eadcaa4	0.33943665
41	0x3d8295d7	0.06376236
42	0x3ebcb741	0.36858562
43	0xbeaa7aeb	-0.33296904
44	0x3da4f42a	0.08054383
45	0x3daf8ab1	0.08571375
46	0xbb82d98f	-0.00399322
47	0xbd3e9fa9	-0.046538983
48	0x3eee56b5	0.46550527
49	0x3dd05aba	0.10173555
50	0xbdbe8884	-0.09303382
51	0x3e3cfc63	0.18455653
52	0xbe35936c	-0.17732018
53	0x3ee8c207	0.4546053
54	0x3e118663	0.1421142
55	0x3d0b6bda	0.034038402
56	0xbc03610b	-0.008018742
57	0xbe3ce7da	-0.1844782
58	0xbd8ac683	-0.06776144
59	0x3e5a4654	0.2131589
60	0x3dd9897d	0.10621927
61	0x3def0085	0.11670021
62	0x3e8fa645	0.2805654
63	0xbed96a65	-0.42463985
64	0x3e7859eb	0.24253051
65	0x3e9169b7	0.28400967
66	0x3ea26b57	0.3172252
67	0x3ea278d5	0.31732813
68	0xbe83be5e	-0.25731176
69	0x3e8c3b13	0.2738882
70	0xbe95c056	-0.29248303
71	0x3ea7f4fd	0.328041
72	0x3de5f331	0.11228026
73	0x3e897ae6	0.26851577
74	0xbebd5158	-0.36976123
75	0x3e5b711a	0.21429864
76	0xbcef0f6f	-0.029182164
77	0xbe23a207	-0.15979777
78	0xbe93b3ca	-0.28848106
79	0xbf0fc943	-0.56166476
80	0xbeccc55b	-0.3999432
81	0x3e3d18bf	0.18466471
82	0xbe9992aa	-0.29994708
83	0x3ca46f0c	0.020072483
84	0xbdcbf0b8	-0.09958023
85	0xbee6fbea	-0.4511407
86	0x3e7fec21	0.2499242
87	0x3e7e1c18	0.24815404
88	0x3d51ead5	0.051249344
89	0x3e18f113	0.14935713
90	0xbc34ca54	-0.011034567
91	0xbd220b58	-0.0395616
92	0x3de17717	0.11009043
93	0xbc9ad77d	-0.018901581
94	0xbe807d69	-0.2509568
95	0xbddebd43	-0.108759426
96	0x3e8c282a	0.27374393
97	0x3e947ea3	0.29002866
98	0xbd0a863d	-0.033819426
99	0xbe188bf7	-0.14897142
100	0x3df9e11a	0.12201138
101	0x3e170332	0.14747313
102	0x3e40a905	0.18814476
103	0x3eb92c42	0.3616658
104	0x3e928edb	0.28624615
105	0xbd0932fa	-0.03349588
106	0x3efe3c57	0.4965541
107	0x3eb3164a	0.34977943
108	0xbe9d1324	-0.30678666
109	0x3deff98c	0.11717519
110	0x3e268d41	0.16264822
111	0x3d88a356	0.06671779
112	0x3ec83bae	0.39108032
113	0x3d30835e	0.04309403
114	0x3dd38f3e	0.10330056
115	0xbeb34340	-0.35012245
116	0x3d762407	0.060092952
117	0xbeaa6d93	-0.33286723
118	0xbe9a300f	-0.3011479
119	0xbdec3bf4	-0.11534873
120	0x3e7ddd6e	0.247915
121	0x3e8ce30f	0.27516982
122	0x3eb9c8d8	0.36286044
123	0x3e1d2100	0.1534462
124	0x3da4801e	0.08032249
125	0x3da4fe7e	0.08056353
126	0xbd5aa7d6	-0.053382717
127	0x3c5fc50b	0.013657819
128	0xbe05539b	-0.13020174
129	0xbecb88cb	-0.39752802
130	0x3de12328	0.10993034
131	0xbe1ce4df	-0.15321682
132	0xbe64fecb	-0.22362821
133	0xbd767e52	-0.060179062
134	0xbe17b800	-0.14816284
135	0x3e9f0e88	0.31065774
136	0x3d20dc6b	0.039272707
137	0xbea4253a	-0.32059652
138	0xbef5da0d	-0.48017922
139	0x3e4a1391	0.19734026
140	0x3d8926a0	0.0669682
141	0xbf10223a	-0.56302226
142	0x3ef224cd	0.47293702
143	0x3ebe77f1	0.37200883
144	0x3d87ee63	0.066372655
145	0x3ce0c2cd	0.027436638
146	0x3e3737fd	0.17892452
147	0x3e21ff25	0.15819986
148	0x3e29110c	0.16510409
149	0xbc609a12	-0.013708608
150	0xbee317f9	-0.44354227
151	0xbe7f4ab0	-0.24930835
152	0x3dbf137d	0.09329889
153	0xbe905b83	-0.28194818
154	0xbeb8b39c	-0.3607453
155	0xbe0c6f69	-0.13714375
156	0xbc028d10	-0.007968202
157	0xbe868241	-0.2627125
158	0x3e941d8d	0.28928795
159	0x3e959a86	0.29219455
160	0xbf094dbc	-0.5363424
161	0x3dc7f06e	0.09762655
162	0x3db5a4a5	0.08869294
163	0x3e870da0	0.26377583
164	0x3d5e231e	0.05423271
165	0x3e15f178	0.14642894
166	0xbd1f3cdc	-0.0388764
167	0xbd783612	-0.06059844
168	0x3e05f1dd	0.13080545
169	0xbdf07e81	-0.11742879
170	0xbc554b5f	-0.013018458
171	0xbeec4df5	-0.46153226
172	0xbca75a27	-0.02042873
173	0xbe0a31dd	-0.13495584
174	0x3cda976e	0.026683535
175	0x3ecb8bbc	0.39755046
176	0xbdef03aa	-0.11670621
177	0xbeebcb0c	-0.4605335
178	0x3e1a8b40	0.15092182
179	0xbf2bbc1f	-0.67083925
180	0x3ea04eb6	0.31310052
181	0xbe3c8b1e	-0.18412444
182	0xbef43883	-0.47699365
183	0x3e689bc0	0.22715664
184	0x3e5dae78	0.21648586
185	0xbec3557a	-0.3815115
186	0xbe209830	-0.15683055
187	0x3eb1ce14	0.34727538
188	0x3e0a72f1	0.13520409
189	0x3ec287ac	0.37994134
190	0xbdafdad2	-0.085866585
191	0x3ea186ff	0.31548306
192	0x3d02fd0f	0.031979617
193	0x3c4b407b	0.01240551
194	0x3e112358	0.14173639
195	0x3d1b7045	0.037948865
196	0xbe1291cf	-0.14313434
197	0xbdbc3425	-0.09189633
198	0x3e0d8fca	0.13824382
199	0xbdca984a	-0.09892328
200	0x3d8644fd	0.06556127
201	0xbe84f64a	-0.25969154
202	0x3e892d0b	0.26792178
203	0xbd8ce103	-0.06878855
204	0x3ece2511	0.40262654
205	0xbe695f8f	-0.22790359
206	0x3e9b51a1	0.30335715
207	0xbe27c7d9	-0.1638483
208	0x3e916cf9	0.28403452
209	0xbd698d9a	-0.057019807
210	0x3e906a32	0.2820602
211	0x3d842b2f	0.06453549
212	0x3ed4b8d2	0.41547257
213	0x3d084c40	0.033275843
214	0x3f0319c3	0.51211184
215	0xbe911d67	-0.28342745
216	0xbdf77879	-0.12083525
217	0x3c94baa7	0.018155409
218	0x3ecc3b39	0.39888933
219	0x3e6b55c4	0.22981936
220	0x3e34feb0	0.1767528
221	0xbe594ce3	-0.21220736
222	0xbea6fed7	-0.32616302
223	0xbdff1dcf	-0.124568574
224	0x3eca4fe8	0.3951409
225	0x3d27af04	0.040938392
226	0xbe36ca89	-0.17850699
227	0x3d8fce98	0.070218265
228	0xbe15aa16	-0.14615664
229	0x3ebae42f	0.36502215
230	0xbd8dc346	-0.06922011
231	0xbd8ebb77	-0.0696935
232	0xbe91b501	-0.28458408
233	0xbe291763	-0.16512828
234	0x3d40d6cc	0.047079846
235	0x3e6d83fd	0.23194881
236	0x3ed195c5	0.40934578
237	0xbed98400	-0.4248352
238	0xbd876547	-0.06611114
239	0xbe14921d	-0.14508863
240	0xbeb3bb5a	-0.35103875
241	0x3ea6f113	0.326058
242	0x3dc0cbcb	0.094138704
243	0xbea737e5	-0.32659832
244	0xbebd039f	-0.36916825
245	0xbed32a75	-0.4124333
246	0x3e99c59f	0.30033585
247	0x3cbbad25	0.02290971
248	0xbc8df4f7	-0.017328722
249	0x3d290fad	0.041274715
250	0x3e837893	0.25677928
251	0xbd9bceec	-0.076078266
252	0xbe7eb33c	-0.2487306
253	0xbe7bda69	-0.24595036
254	0x3ea9c7e4	0.33160317
255	0x3e3dfd5b	0.18553679

model.2.weight f4 [256]
0	0x3e5b339a	0.21406403
1	0x3ed241a4	0.41065705
2	0x3e56f1f4	0.20990735
3	0x3e7834bd	0.24238868
4	0x3b281f73	0.002565351
5	0x3f05d195	0.5227292
6	0x3f95ada6	1.1693618
7	0x3f495be3	0.78655833
8	0x3f5b0aae	0.8556317
9	0x3e689bae	0.22715637
10	0x3fa5ddfd	1.295837
11	0x3d7e08a2	0.06201995
12	0x3fab7273	1.3394302
13	0x3f1c0766	0.6094879
14	0x3f035d6a	0.51314414
15	0x3e294691	0.16530825
16	0x3e8b61fd	0.27223197
17	0x3f9d3906	1.2283027
18	0x3f6c43d8	0.9229102
19	0x3e379fb2	0.17932013
20	0x3f811616	1.0084865
21	0x3f519976	0.8187479
22	0x3ad1be04	0.0016002064
23	0x3ff99095	1.9497248
24	0x3e558d77	0.20854746
25	0x3fd81662	1.6881831
26	0x3ace1bf9	0.0015724889
27	0x3e18841e	0.14894149
28	0x3ea07071	0.31335786
29	0x3e54495d	0.20731111
30	0x3f7fcc72	0.99921334
31	0x3e794bda	0.24345341
32	0x3f1c6a20	0.61099434
33	0x3f9c05da	1.2189286
34	0x3de1d77b	0.11027428
35	0x3eef9c6b	0.46799025
36	0x3efaf64f	0.49016044
37	0x3f04b1bf	0.5183372
38	0x3f3c699e	0.7359866
39	0x3f64ecf0	0.8942404
40	0x3e3e8142	0.18603995
41	0x3f08c774	0.5342934
42	0x3de5bb2a	0.11217339
43	0x3f773922	0.9657155
44	0x3fa2222a	1.2666676
45	0x3e729c00	0.23692322
46	0x3f2407d9	0.64074475
47	0x3f86aa28	1.0520678
48	0x3e6ae40c	0.22938555
49	0x3e23912e	0.1597335
50	0x3ecdfe07	0.4023287
51	0x3f00d0ee	0.503188
52	0x3f1dc6aa	0.6163126
53	0x3f2a125b	0.6643426
54	0x3fa33bee	1.2752664
55	0x3961f29f	0.00021548056
56	0x3d29d653	0.04146416
57	0x3f10c41d	0.56549245
58	0x3dc24d7a	0.09487434
59	0x3b0e87fe	0.0021748538
60	0x3dbb9c7d	0.09160707
61	0x3e99538e	0.2994656
62	0x3cb57dd4	0.022154726
63	0x3fb47610	1.409853
64	0x3e0ecac0	0.1394453
65	0x3fa34019	1.2753936
66	0x3f155b2d	0.5834225
67	0x3e41d98f	0.18930648
68	0x3e026e17	0.12737308
69	0x3ec93d8b	0.39304766
70	0x3f84f292	1.0386527
71	0x3f743999	0.9540039
72	0x3e1361ea	0.1439282
73	0x3f48ba90	0.7840967
74	0x3fb3bf55	1.4042765
75	0x3f08155e	0.53157604
76	0x3cf27e83	0.029601341
77	0x3f7359ad	0.9505871
78	0x3f293449	0.66095406
79	0x3fd2bfdc	1.6464801
80	0x3fb6c5ca	1.427911
81	0x3e85498d	0.26032677
82	0x3f00eabe	0.5035819
83	0x3ea7a376	0.32741898
84	0x3d9b70ba	0.0758986
85	0x3f45af83	0.77220935
86	0x3e65bfd0	0.22436452
87	0x3efa04e1	0.48831847
88	0x3dbcfbb3	0.09227695
89	0x3f4c25fc	0.7974546
90	0x3e9c1740	0.30486488
91	0x3f3eda8f	0.74552244
92	0x3e1cfb1c	0.15330166
93	0x3dded403	0.10880282
94	0x3f7158a1	0.9427586
95	0xb9c19c10	-0.00036928104
96	0x3de00897	0.109391384
97	0x3e76f329	0.24116196
98	0x3ea55d61	0.32297805
99	0x3eafe408	0.34353662
100	0x3ea95e47	0.3307974
101	0x3cf7bd1d	0.030241543
102	0x3e19d446	0.15022382
103	0x3e443d65	0.19164045
104	0x3d692790	0.056922495
105	0x3f0f7d14	0.5605023
106	0x3ee0d6e5	0.43913952
107	0x3f17579c	0.59118056
108	0x3dc3d90e	0.09562884
109	0x3ea53eb9	0.32274416
110	0x3ea4a749	0.32158878
111	0x3b43be2c	0.002986799
112	0x3e25d15c	0.16193146
113	0x3cbb37d7	0.022853775
114	0x3eb4f425	0.35342517
115	0x3f949094	1.1606622
116	0x3f7b9ba3	0.9828436
117	0x3efed63b	0.4977282
118	0x3e86a9f3	0.26301536
119	0x3efc58f9	0.4928663
120	0x3e14f7da	0.14547673
121	0x3df1c3f0	0.1180495
122	0x3e50db21	0.20396091
123	0x3c7ecd38	0.015551858
124	0x3ed7aa6a	0.42122203
125	0x3f6e1248	0.92996645
126	0x3e90f55e	0.283122
127	0x3de6db33	0.11272278
128	0x3cd86f43	0.026420241
129	0x3f90c92d	1.1311394
130	0x3dfc4c22	0.12319209
131	0x3dbbb06a	0.09164508
132	0x3f49f3f4	0.7888787
133	0x3f9a78da	1.2068131
134	0x3f0add47	0.5424389
135	0x3f3ace21	0.7297078
136	0x3bed3b2f	0.0072397212
137	0x3f8d1f43	1.1025165
138	0x3fc23e71	1.5175306
139	0x3d92c2c2	0.07166053
140	0x3e9bef33	0.30455932
141	0x3f806f4f	1.0033969
142	0x3fa1110b	1.2583326
143	0x3e389a38	0.1802758
144	0x3e6735b2	0.22579077
145	0x3c1d6502	0.009606602
146	0x3e9b6a17	0.30354378
147	0x3f6956b2	0.9114791
148	0x3db53cfe	0.08849524
149	0x3d330684	0.043707386
150	0x3f420b0e	0.7579812
151	0x3db54e3c	0.08852813
152	0x3e74d950	0.23911023
153	0x3e940953	0.28913364
154	0x3f788685	0.9708026
155	0x3d3bc853	0.04584534
156	0x3c9da90a	0.019245643
157	0x3f279544	0.65462136
158	0x3ea9ca6a	0.33162242
159	0x3de3bdf0	0.11120212
160	0x3f9ed21a	1.2407868
161	0x3e36c1ba	0.17847338
162	0x3f1a9785	0.6038745
163	0x3e29232e	0.16517326
164	0x3e492fc9	0.19647135
165	0x3db06d4f	0.08614599
166	0x3f06f523	0.527178
167	0x3f825e10	1.0184956
168	0x3f931e59	1.1493636
169	0x3cc7073a	0.024295438
170	0x3f09595b	0.5365197
171	0x3f0ee836	0.55823076
172	0x3ea42abd	0.32063857
173	0x3f122600	0.57089233
174	0x3dd9f736	0.10642855
175	0x3eb110c4	0.34583104
176	0x3f2060e7	0.6264786
177	0x3f63d8e7	0.8900284
178	0x3e1551bd	0.14581962
179	0x3fdc8ba6	1.7230117
180	0x3ef23550	0.473063
181	0x3f5c91b0	0.861598
182	0x3f1b9ee8	0.60789347
183	0x3e5fe6b8	0.21865356
184	0x3ac83a3c	0.0015276144
185	0x3fb2bfa9	1.396474
186	0x3f16178f	0.586297
187	0x3ef6be42	0.4819203
188	0x3e2c8a97	0.16849743
189	0x3fa7f132	1.3120482
190	0x3df8ea7f	0.121541016
191	0x3c6ca7bd	0.014444289
192	0x3f2e71d0	0.68142414
193	0x3e7fc18a	0.24976173
194	0x3fe57f45	1.7929465
195	0x3eccc89a	0.39996797
196	0x3e43d739	0.1912507
197	0x3ea4b65e	0.32170385
198	0x3e9ed1e9	0.31019524
199	0x3eb2cb66	0.34920806
200	0x3d81205d	0.06305001
201	0x3f329682	0.69760907
202	0x3dd6d84d	0.10490475
203	0x3d03b87f	0.03215837
204	0x3f8ef4c0	1.1168442
205	0x3ecb1d8f	0.3967099
206	0x3f9a745c	1.206676
207	0x3f00b259	0.50272137
208	0x3d93983a	0.07206769
209	0x3a4103b0	0.0007362915
210	0x3f16120b	0.5862128
211	0x3e19a9d6	0.15006194
212	0x3c8dd33c	0.017312638
213	0x3d90eedd	0.070768096
214	0x3ee61c12	0.4494329
215	0x3f982a51	1.1887914
216	0x3f21e770	0.6324377
217	0x3e5ba62f	0.21450113
218	0x3e933090	0.28747988
219	0x3eb9d025	0.36291614
220	0x3d3aed70	0.045636594
221	0x3f9dce9e	1.232868
222	0x3f5540c1	0.8330193
223	0x3fca8b43	1.5823749
224	0x3e87526e	0.26430076
225	0x3d3a481c	0.045478925
226	0x3c2911e7	0.01031921
227	0x3e09212c	0.1339156
228	0x3ecb4e9d	0.39708415
229	0x3ad78bce	0.0016444863
230	0x3d63263f	0.055456396
231	0x3e7d8718	0.24758565
232	0x3faa6a79	1.3313743
233	0x3f870b47	1.0550317
234	0x3d3cd13c	0.04609798
235	0x3e374823	0.17898612
236	0x3e31d7a5	0.17367418
237	0x3f67cd65	0.9054778
238	0x3ff08576	1.8790729
239	0x3ed65951	0.41865018
240	0x3f171701	0.59019476
241	0x3f1e2185	0.61769897
242	0x3e09e3f3	0.13465862
243	0x3e5f0ad6	0.21781477
244	0x3f96fc0c	1.1795669
245	0x3fdd9b09	1.7312938
246	0x3eae98ae	0.3410086
247	0x3f45159e	0.7698611
248	0x3f10558f	0.5638055
249	0x3e16e633	0.14736252
250	0x3de20dc9	0.110377856
251	0x3fa2c612	1.2716696
252	0x3f7204e6	0.94538724
253	0x3fc82f5e	1.5639455
254	0x3dca20cb	0.09869536
255	0x3e867a1d	0.2626504

model.2.bias f4 [256]
0	0x3e97d1b2	0.29652172
1	0xbecd7c7d	-0.4013404
2	0xbe3fb89e	-0.1872277
3	0xbe82758c	-0.25480306
4	0xbd71cc32	-0.059032626
5	0xbeccf1e4	-0.40028298
6	0xbce93d07	-0.028471483
7	0x3e7af76a	0.24508443
8	0xbe8feb69	-0.2810929
9	0xbd616e22	-0.05503667
10	0xbf19fc8e	-0.6015099
11	0xbc9266e6	-0.017871331
12	0xbec7739a	-0.38955384
13	0xbd067cb8	-0.032833785
14	0x3e446980	0.1918087
15	0x3e432bb7	0.19059645
16	0xbee43f65	-0.44579616
17	0x3e571d64	0.21007305
18	0xbedd92aa	-0.43275958
19	0x3f0c5cec	0.5482929
20	0x3cee11cf	0.029061226
21	0x3e4769fb	0.19474022
22	0xbe29ffc9	-0.1660148
23	0x3e8ba326	0.2727291
24	0xbf1acfc2	-0.60473263
25	0x3ee8f166	0.45496672
26	0x39e33b61	0.00043341055
27	0x3f32b62d	0.6980923
28	0xbecaaa4a	-0.39583045
29	0xbec6acfc	-0.38803852
30	0x3ee507d0	0.44732523
31	0xbeb369c9	-0.35041645
32	0xbd29dd1f	-0.041470643
33	0x3e350fb2	0.17681769
34	0xbeba3de1	-0.36375335
35	0x3da93983	0.082629226
36	0x3e0f92d9	0.14020862
37	0x3e33ed61	0.17571022
38	0x3e9e78aa	0.30951434
39	0x3db99753	0.09062066
40	0xbe278655	-0.16359837
41	0xbce23e3d	-0.027617568
42	0x3e2e5696	0.17025217
43	0x3d543fe0	0.05181873
44	0x3e3f40c4	0.1867705
45	0x3f0d0104	0.55079675
46	0xbed2840f	-0.41116378
47	0xbe9be134	-0.30445254
48	0x3ec431bc	0.38319194
49	0xbe6c0fe2	-0.23052934
50	0xbda74589	-0.0816756
51	0xbebe56ed	-0.37175694
52	0xbc94ab6e	-0.01814815
53	0x3cee1c55	0.029066244
54	0x3dae4b53	0.08510461
55	0xbba637af	-0.005072556
56	0x3e4fffde	0.2031245
57	0xbc992795	-0.018695632
58	0xbca57db9	-0.02020155
59	0x3d91c135	0.071169294
60	0xbdcb1e76	-0.09917919
61	0xbf0f97b1	-0.5609084
62	0xbe050caf	-0.1299312
63	0xbe6c72ab	-0.23090617
64	0x3eb4c9bf	0.3531017
65	0xbde726f7	-0.11286729
66	0xbf0e6368	-0.5562043
67	0xbd04cc0c	-0.032421157
68	0xbeedbb12	-0.46431786
69	0xbd91413c	-0.070925206
70	0xbc9ccb58	-0.01913993
71	0xbe388fa1	-0.1802354
72	0xbdb7ba89	-0.08971126
73	0xbd790a8f	-0.060801085
74	0x3ebb6bbc	0.36605632
75	0xbe50b4f5	-0.2038153
76	0x3e9eaab0	0.309896
77	0x3e07fa66	0.13279113
78	0xbd95c01f	-0.07312035
79	0xbec26bb3	-0.37972793
80	0xbe907ee6	-0.28221816
81	0xbe88ae57	-0.2669551
82	0x3d2e3c88	0.042538196
83	0x3e918f62	0.28429705
84	0xbe795fcd	-0.24352951
85	0xbeb427a8	-0.35186505
86	0x3e74a1da	0.23889866
87	0x3da8c665	0.08240966
88	0xbe1959a0	-0.14975595
89	0x3d9479c5	0.07249788
90	0x3ee8621f	0.4538736
91	0x3cd79723	0.026317185
92	0xbf0cf46f	-0.55060476
93	0x3ecbbabb	0.39790902
94	0x3d74d697	0.05977496
95	0x3b586df2	0.0033024517
96	0xbe1ae1eb	-0.15125243
97	0xbf0b4972	-0.54408944
98	0x3f1ed663	0.6204588
99	0xbead2a4d	-0.33821335
100	0xbe46f6d0	-0.19430089
101	0x3d477f52	0.048705406
102	0x3d23d134	0.039994434
103	0x3e5e74c8	0.21724236
104	0x3e55d61c	0.20882457
105	0x3e1be16a	0.15222707
106	0xbf01d72e	-0.50718963
107	0x3f308817	0.68957657
108	0x3e5230de	0.20526454
109	0xbf0f83b5	-0.56060344
110	0x3f22f040	0.6364784
111	0xbcb81685	-0.022471676
112	0xbefe1f9e	-0.49633497
113	0x3def7876	0.11692898
114	0xbeab8604	-0.33500683
115	0xbf0266ef	-0.50938314
116	0xbeb7bbbc	-0.35885417
117	0x3e1a6db5	0.15080912
118	0x3f0697f5	0.5257562
119	0xbe24b7b9	-0.1608571
120	0xbe1518ca	-0.14560238
121	0xbd955ceb	-0.07293113
122	0x3f15a705	0.58457977
123	0x3e1c016c	0.15234917
124	0xbe047d44	-0.1293841
125	0x3dea235b	0.11432525
126	0x3be552b9	0.0069983867
127	0x3f0fb6a6	0.56138074
128	0xbdd8a5d5	-0.10578505
129	0xbea50ee0	-0.3223791
130	0xbee9a5f9	-0.4563444
131	0x3e9517f0	0.29119825
132	0xbe6b11c1	-0.22955991
133	0xbe9c317e	-0.3050651
134	0xbe373c5b	-0.17894118
135	0xbdf835bd	-0.12119625
136	0xbc98dcde	-0.018660005
137	0xbe49ad23	-0.19694953
138	0xbf07d454	-0.5305836
139	0x3e8b9efe	0.2726974
140	0xbe645772	-0.22298983
141	0xbe27d4ba	-0.16389742
142	0xbe957ed7	-0.29198334
143	0xbf0398a0	-0.5140476
144	0x3c102e6c	0.00880013
145	0x3e299cab	0.1656367
146	0xbf6c5df6	-0.92330873
147	0x3ddd4985	0.10805038
148	0x3ebbb929	0.36664703
149	0x3e25fa2f	0.16208719
150	0xbe50218e	-0.203253
151	0x3d67d170	0.05659622
152	0xbebcfa82	-0.36909872
153	0xbee850cb	-0.4537414
154	0xbe955b27	-0.29171106
155	0x3e596c48	0.21232712
156	0xbdeadcbc	-0.11467883
157	0x3f11b5d5	0.5691808
158	0x3e6128d0	0.21988225
159	0xbec48295	-0.38380876
160	0x3d7ee5ed	0.062230993
161	0xbe7ffc23	-0.24998526
162	0xbe05f59d	-0.13081975
163	0x3f1f99e6	0.62344205
164	0x3ea35013	0.3189703
165	0xbe7e6da4	-0.24846512
166	0xbec91469	-0.39273384
167	0xbe8904b8	-0.26761413
168	0xbe78f2f7	-0.24311434
169	0xbde6cda1	-0.11269689
170	0xbd955418	-0.0729143
171	0xbd04ebbf	-0.032451387
172	0xbf0d5e5c	-0.55222106
173	0xbf12b114	-0.5730145
174	0xbe96cf4c	-0.2945503
175	0x3f1744c0	0.5908928
176	0x3dac04ca	0.08399351
177	0xbf2bfe31	-0.6718474
178	0xbf272947	-0.6529736
179	0xbdeef9ba	-0.11668725
180	0xbea7d03f	-0.32776067
181	0xbe5b6010	-0.21423364
182	0xbeae5abc	-0.340536
183	0xbe956f3f	-0.29186437
184	0xba02add1	-0.0004985007
185	0xbe5b1f72	-0.21398714
186	0x3dd73c03	0.10509493
187	0xbe186265	-0.14881285
188	0x3f1ec48a	0.62018645
189	0xbf363ee6	-0.71189725
190	0x3e02b69e	0.12764975
191	0x3c131d37	0.008979133
192	0xbed94845	-0.4243795
193	0xbe63a80f	-0.22232078
194	0x3e4ff958	0.20309961
195	0x3dcb5803	0.09928896
196	0xbe92a390	-0.28640413
197	0x3d65376d	0.05596106
198	0xbf3a728e	-0.72831047
199	0xbf0e3f7f	-0.5556564
200	0x3edd7d01	0.43259433
201	0x3ed9d2c0	0.42543602
202	0xbd4feffc	-0.050765976
203	0xbe0e2629	-0.13881744
204	0xbe8882da	-0.26662332
205	0x3e9b14cd	0.30289307
206	0xbe91756a	-0.28409892
207	0x3e12a182	0.14319423
208	0x3e09cc12	0.13456753
209	0xba7a3524	-0.0009544662
210	0x3f4743c4	0.7783778
211	0xbe60a205	-0.21936806
212	0xbe8f5c72	-0.28000218
213	0x3eb3f4bd	0.35147658
214	0xbe3564d4	-0.17714244
215	0x3e93b786	0.28850955
216	0xbee8d490	-0.45474672
217	0xbedd69f7	-0.43244907
218	0x3f064472	0.5244819
219	0xbf1b3014	-0.60620236
220	0x3e4b42c2	0.19849685
221	0xbdd585aa	-0.10425885
222	0xbef349ec	-0.47517335
223	0xbe7b576a	-0.24545065
224	0xbf0212b6	-0.508098
225	0x3dad58ac	0.084641784
226	0x3d704bd9	0.058666084
227	0x3d805e63	0.06268003
228	0x3e8d016c	0.27540147
229	0xbb66065b	-0.0035099003
230	0xbd25e468	-0.04050103
231	0x3f55d651	0.83530146
232	0xbecab860	-0.39593792
233	0xbe86eee8	-0.26354146
234	0xbdecbcdc	-0.115594596
235	0xbe68ecf4	-0.2274664
236	0x3f2232e5	0.6335891
237	0xbe8af027	-0.27136347
238	0x3ec43434	0.38321078
239	0x3f0f75e5	0.5603927
240	0x3ef9d58f	0.48795745
241	0x3d802c8a	0.06258495
242	0xbecb5bb5	-0.39718404
243	0xbda75d84	-0.081721336
244	0x3e880459	0.26565817
245	0xbed80b2c	-0.42196023
246	0x3d8fed58	0.070276916
247	0xbe4d2f58	-0.20037591
248	0xbf1e369d	-0.61802083
249	0xbe280865	-0.16409452
250	0xbf03ea7c	-0.5152967
251	0x3d8fe757	0.070265464
252	0xbeb52d9a	-0.35386354
253	0xbd64209c	-0.05569516
254	0x3efdb5ae	0.49552673
255	0xbed713dd	-0.42007342

model.2.running_mean f4 [256]
0	0x3eccda45	0.40010276
1	0x3f0c584f	0.5482225
2	0x3f31eb5e	0.69499767
3	0x3f32d3da	0.6985451
4	0x3e8ae4e3	0.27127752
5	0x3e81b95b	0.25336727
6	0x3e3a4834	0.18191606
7	0x3f6bb95e	0.9207972
8	0x3f4b7bcc	0.79485774
9	0x3e5b843c	0.21437162
10	0xbdef75fc	-0.116924256
11	0x3f12f99c	0.57412124
12	0x3e270498	0.16310346
13	0xbccfb1f8	-0.025353417
14	0x3e6fc51a	0.23415032
15	0x3e3d5def	0.18492864
16	0x3ef91a53	0.48652896
17	0xbdd78521	-0.10523439
18	0x3e2669a4	0.16251236
19	0x3e4f3b71	0.20237519
20	0x3d26bea7	0.040709164
21	0x3c8525b5	0.016253332
22	0x3e8a4d6f	0.27012202
23	0x3dafdeb5	0.085874
24	0x3ecf07f0	0.40435743
25	0x3db6923e	0.08914612
26	0x3d13431d	0.035952676
27	0xbdcee3f8	-0.10102075
28	0x3eedc2f9	0.46437815
29	0x3ee14188	0.4399531
30	0x3ce112a2	0.027474705
31	0x3efb629c	0.4909867
32	0x3e90a9a7	0.28254434
33	0xbe45f62a	-0.19332185
34	0x3f01a84b	0.5064742
35	0x3ebb4565	0.3657638
36	0x3f443f94	0.7665951
37	0x3f56cd38	0.8390689
38	0xbe650a21	-0.22367145
39	0x3e06902a	0.13140932
40	0x3f0f3efc	0.5595548
41	0x3f3aebf0	0.7301626
42	0x3e86cb8c	0.2632717
43	0xbe8958db	-0.26825604
44	0x3db4bd08	0.08825117
45	0x3eba6f76	0.36413163
46	0x3f3b7486	0.73224676
47	0x3d90d9f2	0.0707282
48	0x3ea244eb	0.31693205
49	0x3e18e0d9	0.14929523
50	0x3d528dd1	0.051404778
51	0x3eb12b93	0.34603557
52	0x3ec41224	0.3829509
53	0x3ce936c5	0.028468499
54	0x3e251a4f	0.16123317
55	0x3d86cb2d	0.065817215
56	0x3dad556a	0.08463557
57	0x3e4d057b	0.20021622
58	0x3e7bec45	0.24601848
59	0xbbb1f845	-0.0054312074
60	0x3dbee667	0.093212895
61	0x3f1c6114	0.6108563
62	0x3eaf9274	0.34291422
63	0x3edb2fd6	0.42809933
64	0x3c23e839	0.010004097
65	0xbda0846c	-0.078377575
66	0x3f9ba89b	1.2160829
67	0x3ea7c332	0.3276611
68	0x3e9969d1	0.29963544
69	0x3f3701c6	0.7148708
70	0xbe421b83	-0.18955807
71	0x3f960318	1.1719694
72	0x3e1f4a33	0.15555649
73	0xbd8311be	-0.063998684
74	0x3dd27dd6	0.102779076
75	0x3d3df290	0.046373904
76	0x3e459aae	0.19297287
77	0x3e97d106	0.2965166
78	0x3e8c23eb	0.27371153
79	0x3d0bce2e	0.034132175
80	0x3e940a13	0.28913936
81	0x3f2a7eae	0.6659955
82	0x3ebe71c0	0.3719616
83	0x3de4cf56	0.11172359
84	0x3f0f3aec	0.5594928
85	0x3ed7f7e8	0.42181325
86	0x3ea64d1a	0.324807
87	0x3e62c4ac	0.22145337
88	0x3eab418a	0.3344844
89	0x3d99e6e9	0.07514746
90	0x3efbac92	0.49155098
91	0x3f8b0c90	1.0863209
92	0x3e02b9fc	0.1276626
93	0xbb659a26	-0.0035034507
94	0x3e9b286d	0.3030428
95	0x3dfc68c0	0.12324667
96	0x3ee26d80	0.44224167
97	0x3ec8fa54	0.39253485
98	0x3efdfc80	0.49606705
99	0x3ea88cc8	0.32919908
100	0x3eafc82d	0.3433241
101	0x3e38aa51	0.1803372
102	0x3efe2743	0.4963933
103	0x3f4bc573	0.7959816
104	0x3e4f9adc	0.20273918
105	0x3f819a61	1.0125238
106	0x3f2ba57c	0.67049384
107	0x3f5686e4	0.83799577
108	0x3e39a2bb	0.18128483
109	0x3f1e684d	0.618779
110	0x3e2049be	0.1565313
111	0x3f04a820	0.5181904
112	0x3f40c676	0.7530283
113	0x3e8501d2	0.2597795
114	0x3de8bb18	0.1136381
115	0x3e8045c2	0.2505322
116	0x3ef92109	0.48658016
117	0xbe2e84c4	-0.17042834
118	0x3d923f68	0.07141
119	0x3e7b4012	0.2453616
120	0x3d35907e	0.04432725
121	0xbcaebb4e	-0.021329548
122	0x3eea4b01	0.45760348
123	0x3e832560	0.25614452
124	0x3f09bb3f	0.5380134
125	0x3dbeb9fd	0.09312818
126	0x3ef4d2dd	0.47817126
127	0x3e4e01ea	0.20117918
128	0xbd15cc70	-0.03657192
129	0x3e7b3880	0.24533272
130	0x3e7a81be	0.24463555
131	0x3cd6dadd	0.026227409
132	0x3ee5b89c	0.44867408
133	0x3d61b278	0.05510184
134	0x3ee3b652	0.44475037
135	0x3f6467eb	0.89221066
136	0x3e5d310f	0.21600746
137	0x3ef8dee2	0.48607546
138	0x3e0b6013	0.13610868
139	0x3ed988e0	0.4248724
140	0x3d9bf7b2	0.076156035
141	0x3ea6abb1	0.32552865
142	0x3cc4ffac	0.024047695
143	0x3ee11fc4	0.43969548
144	0x3f15ac74	0.5846627
145	0x3d8a3a3a	0.06749387
146	0x3ea220db	0.31665692
147	0x3e4f422b	0.20240085
148	0x3c52e91c	0.01287296
149	0x3ed7d926	0.4215786
150	0x3eb805f2	0.35942036
151	0xbe546ff9	-0.20745839
152	0x3eb79ad0	0.358603
153	0x3e9c5fe6	0.30541915
154	0x3eca455e	0.39506048
155	0x3ebf09e3	0.3731223
156	0x3d9cedc6	0.07662539
157	0xbe521d89	-0.2051908
158	0x3eaf3e2c	0.3422712
159	0x3ec5899f	0.3858156
160	0xbe09fe96	-0.13476023
161	0x3e16f1ff	0.14740752
162	0x3d7a8cbc	0.06116937
163	0x3ee4ae80	0.44664383
164	0x3d345b7e	0.044032566
165	0x3f01e87a	0.50745356
166	0x3f7a6f17	0.9782576
167	0x3e1c2354	0.15247852
168	0x3f8c173a	1.0944588
169	0x3e85a2cb	0.26100764
170	0x3f3f7355	0.7478536
171	0x3eeca95f	0.4622297
172	0x3f2552e0	0.6457958
173	0x3eba5ada	0.3639744
174	0x3ed5a17a	0.4172476
175	0x3f73ab1f	0.95182985
176	0x3eb36922	0.35041147
177	0x3e52aa0d	0.20572682
178	0x3e1c0006	0.15234384
179	0x3db52065	0.088440694
180	0x3f05e608	0.52304125
181	0xbda47cd3	-0.08031621
182	0x3ea42aca	0.32063895
183	0xbc89b063	-0.01680774
184	0x3e06675a	0.13125363
185	0x3bca3fa8	0.006172139
186	0x3f3db4b7	0.74103874
187	0x3f37ee78	0.7184825
188	0x3e7af4e8	0.24507487
189	0x3d1c017c	0.038087353
190	0x3e970e7d	0.2950324
191	0x3f11ea94	0.5699856
192	0x3e90ab19	0.28255537
193	0x3f0f3366	0.559378
194	0x3d8efd60	0.06981921
195	0x3f281845	0.6566203
196	0x3f0ad623	0.54232997
197	0x3f087b1d	0.53312856
198	0x3ebe23b1	0.37136605
199	0xbc33d6c7	-0.0109765
200	0x3eb3c1e9	0.3510888
201	0x3daa4500	0.08313942
202	0x3f0dfe38	0.5546603
203	0x3c9158c8	0.01774253
204	0x3d00b1fd	0.031419743
205	0xbda340ec	-0.07971367
206	0xbb47317e	-0.003039449
207	0x3f131af1	0.57462984
208	0xbd2960b0	-0.041351974
209	0x3d3f2ecb	0.046675485
210	0x3f2df5dc	0.67953277
211	0x3cce67de	0.025196012
212	0x3ecc00fa	0.39844495
213	0x3cf0fd4e	0.02941766
214	0x3f22ad7d	0.6354597
215	0xbe6c4dac	-0.23076504
216	0x3f53541e	0.8255023
217	0x3f17a6c9	0.5923887
218	0x3ef88562	0.48539263
219	0x3f08bf70	0.5341711
220	0x3ec33f12	0.38134056
221	0x3e9f45d7	0.3110797
222	0x3e5bd292	0.21467045
223	0x3db69f5a	0.08917113
224	0x3e33a75e	0.17544314
225	0x3ed85ec1	0.42259791
226	0x3ea2c742	0.31792647
227	0xbe1fcf16	-0.15606341
228	0x3da2dfa6	0.07952814
229	0x3ed98544	0.42484486
230	0x3e9d9c1b	0.30783162
231	0x3e80c470	0.2514987
232	0xbde579a0	-0.11204839
233	0x3dd55a48	0.104176104
234	0x3f360f86	0.71117437
235	0x3e8c0ea9	0.27354935
236	0x3e707e30	0.23485637
237	0xbe609a60	-0.2193389
238	0x3ddc3934	0.10753098
239	0x3ec0da64	0.3766662
240	0xbe660312	-0.22462109
241	0x3f27bb74	0.65520406
242	0x3ec510df	0.38489434
243	0x3ea5d8ea	0.32392055
244	0xbdf6c01c	-0.12048361
245	0x3d5313b5	0.051532466
246	0x3f978737	1.1838139
247	0x3eb33b13	0.35006008
248	0x3f137503	0.5760042
249	0x3ec8d4f9	0.39224985
250	0x3e98f32b	0.29873022
251	0x3debfc86	0.115227744
252	0x3e4228e2	0.18960908
253	0x3d867bae	0.06566559
254	0x3e53f9c5	0.20700748
255	0x3e77745a	0.24165478

model.2.running_var f4 [256]
0	0x3dfbd496	0.12296407
1	0x3e08a797	0.1334518
2	0x3e4a4cae	0.19755813
3	0x3e57d179	0.21076001
4	0x3defb62b	0.11704668
5	0x3d82a8a1	0.0637982
6	0x3d24e106	0.04025366
7	0x3de50128	0.11181861
8	0x3da6ebfa	0.08150478
9	0x3dcdf677	0.10056775
10	0x3cb001a8	0.021485165
11	0x3e94b741	0.29046062
12	0x3cee18f9	0.029064642
13	0x3d38599f	0.045007344
14	0x3d3c6fa2	0.0460049
15	0x3da0acba	0.07845445
16	0x3e03cd9a	0.128714
17	0x3af779f8	0.0018880954
18	0x3d20a4ec	0.03921978
19	0x3e0662eb	0.13123672
20	0x3c30bd09	0.010787257
21	0x3c620404	0.013794903
22	0x3e1948d6	0.14969191
23	0x3c568949	0.013094255
24	0x3e5bee92	0.21477726
25	0x3c7bfb7c	0.015379783
26	0x3d8afd7f	0.06786632
27	0x3d0bb8dc	0.034111843
28	0x3e2d8a6a	0.16947332
29	0x3df49754	0.11942926
30	0x3ca812c1	0.020516755
31	0x3e142902	0.14468768
32	0x3dd62057	0.10455387
33	0x3b22aaac	0.0024820967
34	0x3e8fbb8d	0.28072777
35	0x3db89cca	0.0901428
36	0x3e8aee42	0.271349
37	0x3dd62270	0.10455787
38	0x3b8c2f7c	0.0042781215
39	0x3db4470e	0.08802615
40	0x3e099dfd	0.13439174
41	0x3dc57fec	0.0964354
42	0x3e1ee46d	0.15516825
43	0x3b301f58	0.002687415
44	0x3c8e5c8f	0.01737812
45	0x3e1ad51c	0.15120357
46	0x3e4e2446	0.20131025
47	0x3cbb101d	0.022834832
48	0x3e00e3b5	0.12586863
49	0x3dbf7a8e	0.09349547
50	0x3d316ee8	0.04331866
51	0x3da6cff9	0.081451364
52	0x3d804062	0.0626228
53	0x3cdfbce2	0.027311746
54	0x3ca7a487	0.020464195
55	0x3d7ffeb5	0.062498767
56	0x3ddd7505	0.10813335
57	0x3de3c2f2	0.11121167
58	0x3df5688a	0.1198283
59	0x3d4ebd27	0.05047336
60	0x3dc9fcd1	0.09862674
61	0x3e24b469	0.16084446
62	0x3e126405	0.14295967
63	0x3d36f830	0.044670284
64	0x3ca7f851	0.020504149
65	0x3b8c849d	0.0042882697
66	0x3e100c38	0.14067161
67	0x3e0f5c44	0.1400004
68	0x3e02a35a	0.12757626
69	0x3e35652f	0.1771438
70	0x3b03e7bc	0.0020127138
71	0x3d9e70ae	0.07736336
72	0x3d9cf84b	0.076645456
73	0x3c136285	0.008995657
74	0x3c993db7	0.018706186
75	0x3d040f3e	0.0322411
76	0x3e135b01	0.14390184
77	0x3d2ba57f	0.041905876
78	0x3d5686fd	0.05237483
79	0x3becc929	0.0072261286
80	0x3cf53e77	0.029937012
81	0x3e61b090	0.2204001
82	0x3dd23f6f	0.10266005
83	0x3de268be	0.11055134
84	0x3e12822e	0.14307472
85	0x3d8213a9	0.06351406
86	0x3df6659f	0.120311014
87	0x3d55051e	0.052006833
88	0x3e29429c	0.16529316
89	0x3da74696	0.0816776
90	0x3e258111	0.16162516
91	0x3e0dc465	0.1384445
92	0x3dace375	0.084418215
93	0x3d9661ad	0.07342849
94	0x3d3ee30d	0.04660325
95	0x3de75027	0.11294585
96	0x3e6cab0f	0.23112129
97	0x3e512742	0.20425132
98	0x3e5b1d1e	0.21397826
99	0x3de5ba84	0.11217216
100	0x3d7e414f	0.062074002
101	0x3da5c32e	0.08093868
102	0x3e7a481a	0.24441567
103	0x3e79c01e	0.24389693
104	0x3dfb4e97	0.12270849
105	0x3e2c678c	0.16836375
106	0x3decd054	0.11563173
107	0x3dddebb5	0.10835973
108	0x3de25310	0.11050999
109	0x3e377e7e	0.17919347
110	0x3e10726b	0.14106147
111	0x3e23c791	0.15994097
112	0x3e935f11	0.28783467
113	0x3e191b11	0.14951731
114	0x3d7e2bd5	0.06205352
115	0x3d0e5a88	0.034754306
116	0x3df3f251	0.119114526
117	0x3a9d3d08	0.0011996338
118	0x3d77bb88	0.060481578
119	0x3d65dbed	0.05611794
120	0x3d3acc4e	0.045604996
121	0x3c7f5ede	0.015586583
122	0x3e3d4d64	0.18486553
123	0x3df08953	0.117449425
124	0x3dcce439	0.100044675
125	0x3d04176a	0.032248892
126	0x3de5279b	0.11189195
127	0x3ddb2a77	0.10701459
128	0x3d74c6de	0.059759967
129	0x3d138b2e	0.036021404
130	0x3dcb1ab5	0.09917203
131	0x3d7c8e7f	0.061659332
132	0x3d80ee5c	0.062954634
133	0x3cf5b8b6	0.029995304
134	0x3e365e70	0.17809463
135	0x3deb52a4	0.11490372
136	0x3e0c4d64	0.13701397
137	0x3d4c2d95	0.049848158
138	0x3c784ffd	0.015155789
139	0x3e7b7d4c	0.24559516
140	0x3d3bf233	0.045885276
141	0x3d5b6725	0.053565163
142	0x3c4378ae	0.011930628
143	0x3dce6c24	0.1007922
144	0x3e3cf267	0.18451844
145	0x3dae8b9c	0.08522722
146	0x3e4588e1	0.19290496
147	0x3d75b33d	0.059985388
148	0x3d352db3	0.044233035
149	0x3e620163	0.22070841
150	0x3d9c52c1	0.076329716
151	0x3b95cf63	0.0045718416
152	0x3e61609c	0.2200951
153	0x3e1b8802	0.15188602
154	0x3d719b13	0.05898578
155	0x3e3256c8	0.17415917
156	0x3da8ba90	0.08238709
157	0x3b479711	0.0030455033
158	0x3dda094e	0.10646306
159	0x3e3fb089	0.18719687
160	0x3ced6ede	0.02898353
161	0x3ded7fe9	0.115966626
162	0x3d0c7e6d	0.034300257
163	0x3e477c09	0.1948091
164	0x3d82b2cd	0.0638176
165	0x3e274493	0.16334753
166	0x3e347fbd	0.17626853
167	0x3d4182eb	0.047243994
168	0x3dad47b9	0.08460946
169	0x3e55e19a	0.20886841
170	0x3dbbd542	0.09171535
171	0x3d7e4a12	0.062082358
172	0x3e30fac3	0.17283158
173	0x3e08450e	0.13307592
174	0x3e2a42fc	0.16627115
175	0x3e620e2f	0.22075723
176	0x3d2e0d8a	0.04249338
177	0x3d4d17e9	0.05007163
178	0x3e0c666a	0.13710943
179	0x3c542503	0.012948277
180	0x3e1a3ac3	0.15061478
181	0x3c7ab50a	0.015301952
182	0x3d60019c	0.054689035
183	0x3d08486f	0.033272203
184	0x3d88189e	0.0664532
185	0x3bd6fd33	0.0065609454
186	0x3de1d245	0.11026434
187	0x3e917abf	0.2841396
188	0x3e335150	0.17511487
189	0x3c6e20a2	0.014534147
190	0x3dbb7d1f	0.09154724
191	0x3e2b0a3c	0.16703123
192	0x3d40cca7	0.04707017
193	0x3e461902	0.19345477
194	0x3c1f9360	0.009739727
195	0x3dd2b796	0.102889225
196	0x3e53e1ed	0.20691653
197	0x3e7401ec	0.23828858
198	0x3e313694	0.17305976
199	0x3d4e993d	0.05043911
200	0x3e6ef472	0.23335436
201	0x3d0ec52d	0.03485601
202	0x3e035382	0.12824824
203	0x3d7ae8a6	0.061257027
204	0x3c2ce522	0.010552676
205	0x3b1ac12e	0.002361368
206	0x3c3778f1	0.011198268
207	0x3dfdb1da	0.12387438
208	0x3cdb7561	0.026789369
209	0x3dae3345	0.08505873
210	0x3e9165fc	0.2839812
211	0x3d829ac8	0.063771784
212	0x3e3a0728	0.18166792
213	0x3d0b6f75	0.03404184
214	0x3db31135	0.08743516
215	0x3b0ea84c	0.0021767793
216	0x3e5305fc	0.20607752
217	0x3e2e5498	0.17024457
218	0x3dafef14	0.085905224
219	0x3dc6e3f2	0.09711446
220	0x3e42923e	0.190011
221	0x3d5a415b	0.053284984
222	0x3d7d8059	0.06188998
223	0x3ce0e032	0.027450655
224	0x3da8273d	0.08210609
225	0x3e2f5afc	0.17124552
226	0x3e0d0ea8	0.13775122
227	0x3b99e9f1	0.0046970774
228	0x3c891dba	0.016737808
229	0x3e0b1785	0.1358319
230	0x3e3b194a	0.18271366
231	0x3e28f152	0.16498306
232	0x3c843aa3	0.016141241
233	0x3d390402	0.045169838
234	0x3e8121b1	0.25221017
235	0x3e248eda	0.16070119
236	0x3e0a8d4f	0.13530467
237	0x3b03cf54	0.002011259
238	0x3c995989	0.018719452
239	0x3e1d255b	0.15346281
240	0x3b2a8b53	0.0026022985
241	0x3e3b3a6e	0.18284008
242	0x3e1cccb3	0.15312462
243	0x3d91285c	0.07087776
244	0x3c487483	0.01223481
245	0x3c6469db	0.013941254
246	0x3e087fc9	0.13329996
247	0x3d6d7a55	0.057977993
248	0x3e29cef4	0.16582853
249	0x3e18cbef	0.14921544
250	0x3e5066c3	0.203517
251	0x3ce15134	0.027504541
252	0x3d028f65	0.031875033
253	0x3c77242e	0.0150843095
254	0x3deaf1bf	0.11471891
255	0x3dc0085c	0.093765944

model.3.weight f4 [512, 256]
0	0x3d1f9983	0.03896476
1	0xbc595bf9	-0.013266557
2	0x3d335b34	0.04378815
3	0xbcac01c2	-0.020996932
4	0x3d48ca48	0.049021035
5	0xbd9fdd53	-0.07805886
6	0x3d70d2a9	0.05879465
7	0xbb860bb7	-0.004090752
8	0x3ca8ca36	0.020604234
9	0xbd6dd61e	-0.058065526
10	0x3dc49c1e	0.096000895
11	0x3d326293	0.04355104
12	0xbcee9bd3	-0.029127037
13	0x3e056ff5	0.1303099
14	0xbcc9f220	-0.024651587
15	0x3c646665	0.013940428
16	0x3cb04521	0.021517338
17	0x3db3fb9b	0.08788224
18	0x3d20db55	0.03927167
19	0xbd9bb78d	-0.07603369
20	0xbd2d7651	-0.042349163
21	0x3ccc96e8	0.024974301
22	0x3e029604	0.12752539
23	0xbdb504ba	-0.08838792
24	0x3d5f94ac	0.054585144
25	0xbd125060	-0.035721183
26	0x3d925b51	0.071463235
27	0xbd7bd628	-0.061483532
28	0x3d9c255d	0.07624314
29	0x3d134ac2	0.035959966
30	0x3cececfd	0.028921599
31	0x3d95f5e7	0.07322293
32	0x3aa76df1	0.0012773854
33	0x3c0fbaa3	0.008772525
34	0xbbd86604	-0.006603958
35	0x3e093942	0.13400748
36	0x3ca9e38c	0.020738386
37	0xbd4baac6	-0.04972341
38	0xbdde9997	-0.10869139
39	0xbcbb2042	-0.02284253
40	0x3d84b96b	0.06480678
41	0xbc8ae1b6	-0.01695333
42	0x3d07cd06	0.03315451
43	0xbd569ea7	-0.052397396
44	0x3d0a21c0	0.033723593
45	0xbd92799e	-0.07152103
46	0xbc203467	-0.009778119
47	0x3d874e51	0.066067345
48	0xbc95d0c9	-0.018288033
49	0xbd1f02a4	-0.038820878
50	0xbd9812f1	-0.07425488
51	0x3cbb1aaf	0.022839872
52	0xbd6d1907	-0.057885196
53	0x3d557e1f	0.05212223
54	0x3d03e779	0.03220317
55	0x3d0b9632	0.034078784
56	0xbda9fa84	-0.08299735
57	0x3db49fff	0.08819579
58	0xbdbae031	-0.09124792
59	0x3d920088	0.071290076
60	0x3df0d8bf	0.11760091
61	0x3e16bbbb	0.14720051
62	0x3d3c994d	0.046044637
63	0xbbf0a3e1	-0.0073437546
64	0xbd86003c	-0.065430135
65	0xbd07309f	-0.033005353
66	0x3b51755f	0.0031960828
67	0x3d820e66	0.063504025
68	0xbbd673a7	-0.0065445486
69	0x3dac7543	0.084208034
70	0xbd180254	-0.037111595
71	0x3d94248f	0.072335355
72	0x3d83d4ac	0.06437048
73	0xbc3b7f43	-0.011443916
74	0x3bf138d4	0.007361511
75	0x3d69c39f	0.057071324
76	0xbd6fb6f3	-0.058524083
77	0x3d178a6a	0.036997236
78	0x3d078296	0.03308352
79	0x3ca1f7c9	0.019771473
80	0x3ce8f678	0.028437838
81	0xbdc90c38	-0.09816784
82	0xbcfd3409	-0.030908601
83	0x3d2299b3	0.03969736
84	0x3c729241	0.014805377
85	0xbd24a6b8	-0.040198058
86	0xbdd1d39b	-0.10245439
87	0x3dc48dbb	0.095973454
88	0xbcc71a6a	-0.024304587
89	0xbcb3d1cf	-0.02195063
90	0x3d2b9105	0.04188635
91	0xbb14f320	-0.0022727922
92	0xbcff3926	-0.03115518
93	0xbc80c575	-0.015719155
94	0x3d038304	0.032107368
95	0xbbb93346	-0.005651864
96	0xbc8ff7a3	-0.017574137
97	0xbbf74f53	-0.007547298
98	0xbcceaddb	-0.025229385
99	0xbc115d13	-0.008872288
100	0x3cfbefcc	0.030753992
101	0x3da0a733	0.07844391
102	0x3ce12753	0.027484572
103	0xbdfa14fd	-0.122110344
104	0xbc94410f	-0.018097429
105	0x3d48fc37	0.049068656
106	0x3d1c1aea	0.038111605
107	0xbd1a3732	-0.037650295
108	0xbd673667	-0.056448366
109	0xbd796a38	-0.060892314
110	0x3beca4aa	0.007221778
111	0xbd65a18e	-0.056062274
112	0x39574ad3	0.00020531872
113	0x3c620737	0.013795665
114	0xbd223d92	-0.0396095
115	0x3c575b6f	0.013144358
116	0xbd90437a	-0.0704412
117	0xbd208a36	-0.03919431
118	0xbd1da19e	-0.03848421
119	0xbaae0bcd	-0.0013278663
120	0x3c0adee4	0.008475993
121	0xbc96ecad	-0.018423403
122	0xbdc262fb	-0.09491535
123	0xbd782594	-0.060582712
124	0xbd88fae1	-0.06688476
125	0xbcb7fb84	-0.0224588
126	0xbd7b97b4	-0.061423972
127	0x3d325f48	0.0435479
128	0xbc4d87d5	-0.012544592
129	0xbd675d4e	-0.056485467
130	0x3bb17a82	0.0054162154
131	0xbcbfd907	-0.023418916
132	0x3c5d9d7b	0.013526316
133	0x3d073c51	0.033016507
134	0xbcb2999b	-0.02180176
135	0x3da279cf	0.079333894
136	0x3d3ee063	0.04660071
137	0x3d879f22	0.06622149
138	0x3cf14715	0.02945284
139	0x3b5e306c	0.0033903373
140	0xbc9ea521	-0.019365849
141	0x3d02f8fa	0.031975724
142	0xbc2e7e82	-0.010650279
143	0x3d13c1cd	0.036073495
144	0xbd9a8da3	-0.07546546
145	0xbc127868	-0.00893984
146	0x3dda0c7a	0.10646911
147	0xbce4e27c	-0.027940027
148	0xbd02b2b6	-0.031908713
149	0xbdbd01c3	-0.09228852
150	0xbd2f52ff	-0.04280376
151	0x3ad3190b	0.0016105486
152	0x3c3cbd5f	0.011519759
153	0x3d8904bb	0.066903554
154	0x3c23c5b0	0.009995863
155	0xbcaa58d7	-0.020794315
156	0xbd2465f7	-0.040136304
157	0xbd58c428	-0.052921444
158	0xbdb87912	-0.09007467
159	0xbd2d8c31	-0.042370025
160	0x3d9716e3	0.07377412
161	0x3c5ecb89	0.013598331
162	0xbbc2321b	-0.005926383
163	0x3db49ed0	0.088193536
164	0xbc81ab0a	-0.015828628
165	0x3c24afba	0.010051662
166	0xbdecd9b0	-0.11564958
167	0x3dcb3f3a	0.09924169
168	0xbd3c63d9	-0.04599366
169	0x3c9ee4c1	0.019396188
170	0x3c844239	0.016144859
171	0x3d7b1caf	0.06130665
172	0xbd126d2c	-0.035748646
173	0xbd1ee5c3	-0.038793337
174	0xbda36901	-0.07979012
175	0xbd41295f	-0.047158595
176	0x3bbb195e	0.005709811
177	0xbd0f3d6e	-0.034970693
178	0x3d2bba53	0.04192574
179	0xbd2b7733	-0.041861724
180	0xbd876594	-0.06611171
181	0x3dd53c44	0.104118854
182	0x3bda7a57	0.006667416
183	0x3d8fbd58	0.07018536
184	0xbd1d909e	-0.038467996
185	0x3d937f7f	0.07202052
186	0xbce460a4	-0.027878113
187	0xbb9ab45c	-0.0047212075
188	0xbd7c5f5b	-0.061614376
189	0x3cfcc4ba	0.030855525
190	0x3da8db37	0.08244937
191	0xbd12efe4	-0.03587331
192	0xbd46c725	-0.048529763
193	0xbdcc787f	-0.0998392
194	0xbd690907	-0.056893375
195	0xbd51f526	-0.051259182
196	0x3d912845	0.07087759
197	0xbbb08309	-0.0053867144
198	0x3cc9bfb2	0.02462754
199	0xbda61e20	-0.08111215
200	0xbd2e3dad	-0.042539287
201	0xbd32e79d	-0.043677915
202	0xbcbfb0b6	-0.023399692
203	0xbd161238	-0.03663847
204	0xbd1f229d	-0.03885137
205	0xbd418445	-0.047245283
206	0xbd40e709	-0.047095332
207	0xbcba9d03	-0.022779947
208	0x3bb38106	0.0054780273
209	0x3d779219	0.060442064
210	0xbcb7968c	-0.022410654
211	0xbd7b737a	-0.061389424
212	0x3cd0f078	0.02550529
213	0x3d8bb86b	0.06822284
214	0xbda9ada2	-0.08285071
215	0xbd1f0b82	-0.038829334
216	0x3d017447	0.03160503
217	0x3d183ea0	0.0371691
218	0xbd87ddad	-0.06634078
219	0xbd55d67b	-0.052206498
220	0x3dc7140a	0.09720619
221	0xbb980c5a	-0.0046401443
222	0x3c83c5af	0.016085474
223	0x3a98c9eb	0.0011656856
224	0xbc064525	-0.008195196
225	0x3deaf7cd	0.114730455
226	0x3ccbf13a	0.0248953
227	0x3da15b41	0.078787334
228	0xbd47f25f	-0.048815127
229	0x3dc6b10a	0.09701736
230	0x3dab0628	0.083507836
231	0x3d048276	0.03235098
232	0x3d0f9efa	0.03506372
233	0x3c90a236	0.017655473
234	0x3d7a1f93	0.061065268
235	0xbc34bd02	-0.011031391
236	0x3d9c032c	0.076177925
237	0xbd605c20	-0.054775357
238	0xbd3971eb	-0.045274656
239	0x3de77641	0.11301852
240	0x3d0e3666	0.034719847
241	0xbd6b44b1	-0.057438556
242	0x3d5b27bf	0.0535047
243	0xbd56cb92	-0.052440234
244	0x3c49ba97	0.012312553
245	0xbd561f6d	-0.052276064
246	0xbd3c11a3	-0.045915257
247	0x3b9eaac5	0.0048421347
248	0x3d01c5ad	0.03168266
249	0x3d2a66e9	0.04160205
250	0x3d7c1bd3	0.061549973
251	0x3bae0d86	0.0053116707
252	0x3cbcf74e	0.023067143
253	0xbdbce223	-0.0922282
254	0x3c7737c2	0.015088977
255	0x3cccad48	0.02498497
